…
n src/train.py 

CUDA Available: False
Using Device: CPU

~/code/ERA-V3/session8/erav3-s8-cifar10-nn git:(main) ✗ UserWarning: Argument 'fill_value' is not valid and will be ignored.
  A.CoarseDropout(
Files already downloaded and verified
Files already downloaded and verified

Model Parameter Count:
==========================================================================================
Layer (type:depth-idx)                   Output Shape              Param #
==========================================================================================
├─Sequential: 1-1                        [-1, 48, 16, 16]          --
|    └─Conv2d: 2-1                       [-1, 24, 32, 32]          672
|    └─BatchNorm2d: 2-2                  [-1, 24, 32, 32]          48
|    └─ReLU: 2-3                         [-1, 24, 32, 32]          --
|    └─Conv2d: 2-4                       [-1, 32, 32, 32]          6,944
|    └─BatchNorm2d: 2-5                  [-1, 32, 32, 32]          64
|    └─ReLU: 2-6                         [-1, 32, 32, 32]          --
|    └─Conv2d: 2-7                       [-1, 48, 16, 16]          13,872
|    └─BatchNorm2d: 2-8                  [-1, 48, 16, 16]          96
|    └─ReLU: 2-9                         [-1, 48, 16, 16]          --
├─Sequential: 1-2                        [-1, 64, 8, 8]            --
|    └─DepthwiseSeparableConv: 2-10      [-1, 48, 16, 16]          --
|    |    └─Conv2d: 3-1                  [-1, 48, 16, 16]          480
|    |    └─Conv2d: 3-2                  [-1, 48, 16, 16]          2,352
|    └─BatchNorm2d: 2-11                 [-1, 48, 16, 16]          96
|    └─ReLU: 2-12                        [-1, 48, 16, 16]          --
|    └─Dropout: 2-13                     [-1, 48, 16, 16]          --
|    └─DepthwiseSeparableConv: 2-14      [-1, 48, 16, 16]          --
|    |    └─Conv2d: 3-3                  [-1, 48, 16, 16]          480
|    |    └─Conv2d: 3-4                  [-1, 48, 16, 16]          2,352
|    └─BatchNorm2d: 2-15                 [-1, 48, 16, 16]          96
|    └─ReLU: 2-16                        [-1, 48, 16, 16]          --
|    └─Dropout: 2-17                     [-1, 48, 16, 16]          --
|    └─DepthwiseSeparableConv: 2-18      [-1, 64, 8, 8]            --
|    |    └─Conv2d: 3-5                  [-1, 48, 8, 8]            480
|    |    └─Conv2d: 3-6                  [-1, 64, 8, 8]            3,136
|    └─BatchNorm2d: 2-19                 [-1, 64, 8, 8]            128
|    └─ReLU: 2-20                        [-1, 64, 8, 8]            --
|    └─Dropout: 2-21                     [-1, 64, 8, 8]            --
├─Sequential: 1                          []                        --
|    └─Conv2d: 2-22                      [-1, 64, 8, 8]            9,280
|    └─BatchNorm2d: 2-23                 [-1, 64, 8, 8]            128
|    └─ReLU: 2-24                        [-1, 64, 8, 8]            --
|    └─Dropout: 2-25                     [-1, 64, 8, 8]            --
|    └─Conv2d: 2-26                      [-1, 64, 8, 8]            9,280
|    └─BatchNorm2d: 2-27                 [-1, 64, 8, 8]            128
|    └─ReLU: 2-28                        [-1, 64, 8, 8]            --
|    └─Dropout: 2-29                     [-1, 64, 8, 8]            --
|    └─Conv2d: 2-30                      [-1, 72, 4, 4]            41,544
|    └─BatchNorm2d: 2-31                 [-1, 72, 4, 4]            144
|    └─ReLU: 2-32                        [-1, 72, 4, 4]            --
|    └─Dropout: 2-33                     [-1, 72, 4, 4]            --
├─Sequential: 1                          []                        --
|    └─Conv2d: 2-34                      [-1, 72, 4, 4]            11,736
|    └─BatchNorm2d: 2-35                 [-1, 72, 4, 4]            144
|    └─ReLU: 2-36                        [-1, 72, 4, 4]            --
|    └─Dropout: 2-37                     [-1, 72, 4, 4]            --
|    └─Conv2d: 2-38                      [-1, 72, 4, 4]            11,736
|    └─BatchNorm2d: 2-39                 [-1, 72, 4, 4]            144
|    └─ReLU: 2-40                        [-1, 72, 4, 4]            --
|    └─Dropout: 2-41                     [-1, 72, 4, 4]            --
|    └─Conv2d: 2-42                      [-1, 88, 2, 2]            57,112
|    └─BatchNorm2d: 2-43                 [-1, 88, 2, 2]            176
|    └─ReLU: 2-44                        [-1, 88, 2, 2]            --
|    └─Dropout: 2-45                     [-1, 88, 2, 2]            --
├─AdaptiveAvgPool2d: 1-3                 [-1, 88, 1, 1]            --
├─Dropout: 1-4                           [-1, 88, 1, 1]            --
├─Linear: 1-5                            [-1, 10]                  890
==========================================================================================
Total params: 173,738
Trainable params: 173,738
Non-trainable params: 0
Total mult-adds (M): 15.39
==========================================================================================
Input size (MB): 0.01
Forward/backward pass size (MB): 1.89
Params size (MB): 0.66
Estimated Total Size (MB): 2.57
==========================================================================================
…
